assets/ai/food_suggestion_model.tflite (tflite, 19364 bytes, 6 tensors)

arith.constant f4 [27, 32]
-0.20996045 0.0011891507 -0.3253394 0.046414606 0.15712869 -0.06616471 0.018825779 -0.1503075
-0.1910709 -0.13251987 -0.52429914 -0.40719408 -0.52013236 0.27410796 0.31775078 0.030169675
-0.27009347 -0.342862 -0.12644745 0.12605412 -0.17376819 -0.24030128 -0.4998186 -0.18525767
0.2519804 0.08290759 0.20795342 -0.45812407 0.11021278 0.13649824 -0.08913056 0.16531923
0.28992504 -0.12675741 0.41325068 -0.5069739 0.053129908 0.11419555 -0.47171444 -0.37426475
-0.20521885 -0.04293257 -0.002530929 0.12158016 -0.11960223 -0.45540515 -0.32441375 -0.5111635
0.21510692 0.07950771 -0.11582649 -0.3382081 -0.53328615 -0.33559728 -0.022880279 -0.0761484
0.114233434 -0.6793147 0.21343984 -0.34548184 -0.4428704 0.25281677 0.16620274 0.29236218
-0.23008108 0.29620647 -0.3725712 0.13561969 0.056111697 -0.11306396 -0.34020352 -0.016866682
0.06494481 0.08249299 0.002166331 -0.36632848 -0.13239712 -0.07118743 0.15628488 0.2683101
-0.03984741 0.26356605 -0.18674146 -0.22544163 -0.6277342 -0.17257535 -0.60392106 -0.3977719
-0.33783048 -0.5779083 0.27559644 0.30035973 -0.2259305 0.26338604 -0.266675 0.1461261
-0.35966435 -0.6971192 -0.18103744 -0.18370768 0.11715609 -0.43583176 -0.08045084 -0.19627136
-0.20813015 0.34857672 0.1779903 -0.24285993 0.15481202 0.101329885 -0.03199525 -0.48754424
-0.43968645 0.2824019 0.07708932 -0.70938176 0.12108621 0.43821907 -0.06195973 -0.44560197
0.18409857 -0.48960495 0.06474941 -0.23972186 0.10829315 0.2252216 -0.0006603341 -0.4047305
-0.09783972 0.21258615 -0.11556188 0.21074475 -0.013976158 -0.29227802 -0.46142715 -0.2745413
-0.14113066 0.42741793 -0.07440006 -0.27153534 0.3654328 -0.40789577 -0.4805097 -0.10550667
0.22344773 -0.14755176 -0.17987457 -0.15699337 0.2502083 -0.3009158 -0.21143906 -0.72745913
-0.17836499 -0.080960095 -0.435987 0.43720603 -0.32580075 -0.22766331 0.076021954 -0.53084654
-0.003432238 0.19493054 -0.5216647 -0.06394677 0.20157906 -0.3698563 -0.23087767 0.27039927
-0.47365355 -0.017106736 -0.40948862 -0.44096154 0.36368796 0.21218485 -0.46363807 -0.26984707
-0.053826593 0.3678731 0.280016 0.028235327 -0.19602457 -0.31610212 -0.20841338 -0.16993845
0.04522585 -0.45989478 -0.37012377 0.27827913 -0.60604745 -0.42230597 -0.069079235 -0.46057642
-0.3811134 -0.29993996 0.19823992 -0.6440634 0.26208997 0.0120270485 -0.6804988 -0.2669747
-0.29666576 0.025533617 -0.31394902 -0.19780308 -0.26953292 0.092421524 0.048121125 0.27017727
0.13685901 0.09767387 -0.34226593 -0.33885437 -0.30092704 -0.43601236 0.07170649 -0.2043528
-0.32014704 0.16307172 -0.49875602 0.30194375 -0.31914493 -0.2022416 -0.22967966 -0.6313353
-0.10804429 0.10379675 -0.3858531 -0.10365641 -0.36860523 0.23406851 -0.21587913 0.0024929699
0.005437957 -0.1635121 -0.36437848 -0.3222137 -0.17432238 0.2314612 0.20863622 0.41350517
-0.33902842 -0.27719265 0.07193486 -0.17568097 0.012986819 -0.1629475 -0.2202905 -0.19565569
-0.02864271 0.23356922 -0.38031214 -0.55282813 -0.10363907 -0.20136772 -0.18610044 -0.4883008
00000000: dfff 56be 47dd 9b3a e392 a6be 3e1d 3e3d
00000010: 58e6 203e 5d81 87bd 8538 9a3c 36ea 19be
00000020: 17a8 43be 4ab3 07be 7838 06bf be7b d0be
00000030: 6527 05bf e157 8c3e 3bb0 a23e 6526 f73c
00000040: b149 8abe 9c8b afbe 717b 01be 5514 013e
00000050: 4af0 31be 8a11 76be 39e8 ffbe 30b4 3dbe
00000060: 9303 813e 74cb a93d bef1 543e 3d8f eabe
00000070: 3db7 e13d 32c6 0b3e 158a b6bd 7249 293e
00000080: 0e71 943e b2cc 01be 9895 d33e 0bc9 01bf
00000090: bf9e 593d 5bdf e93d 8e84 f1be a19f bfbe
000000a0: e424 52be 10da 2fbd f1dd 25bb 05ff f83d
000000b0: 04f2 f4bd dd2a e9be 8f19 a6be 9cdb 02bf
000000c0: fd44 5c3e f0d4 a23d 7036 edbd 9d29 adbe
000000d0: 7185 08bf 68d3 abbe 6c6f bbbc b1f3 9bbd
000000e0: 38f3 e93d 91e7 2dbf f98f 5a3e ffe2 b0be
000000f0: e9bf e2be 3371 813e 0d31 2a3e 7fb0 953e
00000100: 609a 6bbe 60a8 973e a7c1 bebe e3df 0a3e
00000110: 61d5 653d 148e e7bd 282f aebe ff2b 8abc
00000120: c901 853d 16f2 a83d 01f9 0d3b 688f bbbe
00000130: 1c93 07be b7ca 91bd 2509 203e f15f 893e
00000140: 0a37 23bd 21f2 863e 2739 3fbe 2cda 66be
00000150: 30b3 20bf 98b7 30be 929a 1abf c2a8 cbbe
00000160: 1ef8 acbe ccf1 13bf fa1a 8d3e c0c8 993e
00000170: 535a 67be 89da 863e a089 88be 15a2 153e
00000180: ed25 b8be 6776 32bf e161 39be de1d 3cbe
00000190: 88ef ef3d 5725 dfbe 69c3 a4bd 5cfb 48be
000001a0: 1220 55be a678 b23e 1743 363e 46b0 78be
000001b0: 0b87 1e3e 0b86 cf3d 740d 03bd 669f f9be
000001c0: 951e e1be fb96 903e 01e1 9d3d 0b9a 35bf
000001d0: 0cfc f73d 405e e03e 7cc9 7dbd f125 e4be
000001e0: 5684 3c3e 80ad fabe 579b 843d a679 75be
000001f0: cdc8 dd3d 7ea0 663e 451a 2dba d638 cfbe
00000200: 3160 c8bd 2fb0 593e b5ab ecbd 79cd 573e
00000210: 41fc 64bc 77a5 95be 2e40 ecbe ad90 8cbe
00000220: 8e84 10be 86d6 da3e 0f5f 98bd ae06 8bbe
00000230: 021a bb3e b7d7 d0be 5e05 f6be e213 d8bd
00000240: 7bcf 643e cf17 17be 0a31 38be dfc2 20be
00000250: 4d1b 803e a311 9abe 7b83 58be c33a 3abf
00000260: 50a5 36be 68ce a5bd b039 dfbe 78d9 df3e
00000270: 5bcf a6be 9220 69be 66b1 9b3d 8fe5 07bf
00000280: 66ef 60bb df9b 473e d18b 05bf 86f6 82bd
00000290: be6a 4e3e ce5d bdbe 326b 6cbe c671 8a3e
000002a0: b882 f2be 6d23 8cbc 7ea8 d1be b6c5 e1be
000002b0: 4f35 ba3e fc46 593e f861 edbe 6529 8abe
000002c0: 4679 5cbd dd59 bc3e 425e 8f3e c64d e73c
000002d0: aaba 48be 23d8 a1be 516a 55be 5804 2ebe
000002e0: be3e 393d 5477 ebbe dd80 bdbe 9a7a 8e3e
000002f0: ed25 1bbf 7d38 d8be 6a79 8dbd acd0 ebbe
00000300: 4c21 c3be bb91 99be 68ff 4a3e 57e1 24bf
00000310: a830 863e 190d 453c 2b35 2ebf e8b0 88be
00000320: 93e4 97be e02b d13c edbd a0be e48c 4abe
00000330: 3800 8abe 7f47 bd3d a81a 453d ad54 8a3e
00000340: c524 0c3e 3d09 c83d 7b3d afbe 527e adbe
00000350: 1c13 9abe 033d dfbe dada 923d dc41 51be
00000360: 50ea a3be 46fc 263e f35c ffbe 5f98 9a3e
00000370: f766 a3be 6c18 4fbe 2531 6bbe 319f 21bf
00000380: 5346 ddbd 6493 d43d 8a8e c5be d049 d4bd
00000390: d3b9 bcbe a8af 6f3e 6b0f 5dbe 1861 233b
000003a0: e430 b23b b76f 27be d18f babe 32f9 a4be
000003b0: 9181 32be 2a04 6d3e bca4 553e f3b6 d33e
000003c0: 2295 adbe 32ec 8dbe 9552 933d b6e5 33be
000003d0: abc6 543c b6db 26be d593 61be f759 48be
000003e0: 1ea4 eabc c52c 6f3e 46b8 c2be 2586 0dbf
000003f0: b940 d4bd 5733 4ebe 1d91 3ebe 9002 fabe

arith.constant1 f4 [32, 64]
0.067905605 -0.16026859 -0.076618575 0.22955628 -0.14059725 0.15115257 0.10906808 0.24082996
0.25586718 -0.06320026 -0.04748762 -0.11844301 0.08446087 0.0128993355 -0.2660364 0.19203486
0.23759301 0.09114362 -0.12811714 0.07827458 -0.22848229 0.1575685 0.1734126 -0.37668428
0.24892907 0.21678229 -0.05515091 -0.23226742 0.11846552 -0.22385524 0.32020056 0.35421073
-0.1584643 -0.16551527 -0.039612215 -0.0068601 -0.18074377 0.26552096 0.32506123 -0.33089954
0.106524736 0.30345562 0.15808037 0.49216002 0.11430658 -0.14468165 -0.27954197 0.1382037
-0.00974824 0.030017223 0.21214415 -0.05537805 -0.030207343 -0.07398783 -0.04513206 -0.27717668
0.15352115 0.038219158 0.093976654 -0.2972142 -0.07447066 0.032983296 0.14902857 0.09786504
0.17718068 0.13931818 -0.1915768 -0.050679725 -0.13954078 0.28728917 0.3516898 0.17216264
0.058789052 0.19876431 -0.02027486 0.1103947 -0.24846286 0.06660122 -0.13702229 -0.04335652
-0.118528366 -0.0009721187 0.14657015 -0.20007513 0.20462023 -0.20824225 -0.2599701 -0.31812477
-0.19407208 0.15188399 0.21465257 0.056605916 0.34747753 0.2518146 0.18407762 0.06424815
0.33480558 -0.0065877493 0.11373389 0.22801939 0.053695712 -0.33261645 0.16070807 -0.044852655
0.23177068 -0.25867927 0.3470183 -0.19000494 0.2742897 0.13275638 0.028242275 0.0693079
0.08146801 -0.23815066 0.3157563 -0.18806133 -0.07622091 -0.07635594 -0.15722615 0.24842772
-0.18901625 0.0821351 -0.08802209 -0.0397308 0.037045997 0.34020063 -0.07479887 0.32229513
0.29701063 0.0076347175 0.05900339 0.10950245 -0.031432446 0.045021288 0.028660236 -0.12918724
0.103732675 -0.38092664 -0.24917573 0.17432201 0.16235787 0.051043488 0.011449981 0.16024207
-0.10821591 -0.18240005 0.04358982 -0.15067726 -0.24254741 0.20103838 0.09745998 -0.34206608
-0.14258425 0.18048239 -0.17730062 -0.10997978 0.19343078 -0.21063177 0.06380165 0.332351
0.17576407 0.1270763 -0.10343935 0.3409731 -0.25125095 0.29161596 0.16613387 -0.15626118
0.03848674 0.33415714 0.027748015 0.4255417 0.18454081 0.2404129 0.14210531 -0.28680134
0.2217372 0.18316598 -0.004552849 0.1295755 -0.023654096 -0.22046906 0.19420893 0.0239973
-0.17520891 -0.20629561 -0.124025166 -0.18271266 0.06992988 0.29064235 0.096739925 0.23708712
-0.07753136 0.42840078 -0.062098157 0.26992235 0.2380853 -0.18350731 -0.10639586 -0.18915929
-0.23753463 0.38761285 -0.017994573 0.21831173 0.3358092 0.016751613 -0.12288065 0.101961866
0.017076988 0.12094426 -0.17649928 -0.079739586 -0.16957024 0.03662581 -0.19975033 -0.07706115
-0.16857916 -0.11220177 0.18333948 -0.27264908 0.21037012 0.14375278 -0.10143913 -0.123495854
0.021249725 0.12359174 0.23255299 0.006065642 0.38211694 -0.010367095 -0.1063957 0.05415469
0.04404745 0.25712165 0.14838795 -0.17215022 -0.038235314 -0.03561089 -0.092708915 0.022447146
0.1899681 -0.28897142 0.14426787 0.007751892 -0.37756208 -0.34372255 -0.23013243 0.0880968
-0.1699666 -0.13652216 0.1071141 0.273355 0.13368784 0.23413417 -0.15437764 -0.109614074
00000000: 1812 8b3d 731d 24be 33ea 9cbd cd10 6b3e
00000010: baf8 0fbe bdc7 1a3e 165f df3d 219c 763e
00000020: 0601 833e 236f 81bd 6182 42bd 4092 f2bd
00000030: d2f9 ac3d bc57 533c ec35 88be c9a4 443e
00000040: 954b 733e 82a9 ba3d 2431 03be 6c4e a03d
00000050: 43f7 69be a359 213e 1393 313e c3dc c0be
00000060: 43e7 7e3e 2dfc 5d3e ece5 61bd 83d7 6dbe
00000070: 0d9e f23d 4f3a 65be 54f1 a33e 1c5b b53e
00000080: 7744 22be d67c 29be 6b40 22bd b1ca e0bb
00000090: e514 39be 5df2 873e 6d6e a63e aa6b a9be
000000a0: a429 da3d 895e 9b3e d2df 213e 66fc fb3e
000000b0: 9119 ea3d 6d27 14be 2020 8fbe 4585 0d3e
000000c0: 15b7 1fbc aee6 f53c 513c 593e 18d4 62bd
000000d0: 6475 f7bc ee86 97bd 65dc 38bd 1aea 8dbe
000000e0: a634 1d3e b18b 1c3d d576 c03d 762c 98be
000000f0: 1384 98bd 7e19 073d f29a 183e 776d c83d
00000100: da6e 353e 6da9 0e3e b52c 44be 8b95 4fbd
00000110: c7e3 0ebe 9117 933e af10 b43e 674b 303e
00000120: cacc 703d df88 4b3e 7717 a6bc 9e16 e23d
00000130: 0c6d 7ebe 3866 883d 924f 0cbe 9b96 31bd
00000140: 00bf f2bd c8d5 7eba 7c16 163e 7fe0 4cbe
00000150: f787 513e 753d 55be cd1a 85be 40e1 a2be
00000160: d5ba 46be 7a87 1b3e e2cd 5b3e 9bdb 673d
00000170: 93e8 b13e d8ed 803e d87e 3c3e 8994 833d
00000180: a36b ab3e 0cde d7bb 50ed e83d ea7d 693e
00000190: 09f0 5b3d b44c aabe a890 243e 6bb7 37bd
000001a0: 4b55 6d3e 9c71 84be 62ac b13e a890 42be
000001b0: b36f 8c3e 4af1 073e 585c e73c 4df1 8d3d
000001c0: b3d8 a63d c4dd 73be cfaa a13e 2693 40be
000001d0: b519 9cbd 8160 9cbd e4ff 20be d663 7e3e
000001e0: 7a8d 41be 7336 a83d ed44 b4bd c3bc 22bd
000001f0: 8bbd 173d c72e ae3e 2630 99bd de03 a53e
00000200: c711 983e a72c fa3b 8aad 713d d242 e03d
00000210: 4fbf 00bd 3e68 383d dfc8 ea3c a949 04be
00000220: cc71 d43d d108 c3be ec27 7fbe 7881 323e
00000230: 2441 263e fa12 513d b398 3b3c 7f16 243e
00000240: 4ea0 ddbd 14c7 3abe 3d8b 323d 244b 1abe
00000250: 595e 78be 01dd 4d3e 1999 c73d 4923 afbe
00000260: 9b01 12be 60d0 383e 4b8e 35be 143d e1bd
00000270: b812 463e dbaf 57be 71aa 823d e929 aa3e
00000280: 7ffb 333e 4a20 023e 03d8 d3bd 0794 ae3e
00000290: f7a3 80be b04e 953e ff1e 2a3e ee02 20be
000002a0: 46a4 1d3d a516 ab3e ce4f e33c 9ae0 d93e
000002b0: 44f8 3c3e cd2e 763e 0e84 113e a0d7 92be
000002c0: 140f 633e dd8f 3b3e 1130 95bb 71af 043e
000002d0: 3cc6 c1bc a4c2 61be b5de 463e fc95 c43c
000002e0: f769 33be 283f 53be e800 febd 0719 3bbe
000002f0: 6637 8f3d 13cf 943e 951f c63d f7c6 723e
00000300: c3c8 9ebd 5957 db3e a35a 7ebd 4333 8a3e
00000310: a2cc 733e 57e9 3bbe 13e6 d9bd f9b2 41be
00000320: 473c 73be 3175 c63e 5b69 93bc 1c8d 5f3e
00000330: 2fef ab3e ae3a 893c daa8 fbbd 62d1 d03d
00000340: 0ae5 8b3c a0b1 f73d 3abc 34be 824e a3bd
00000350: d2a3 2dbe f204 163d 5a8b 4cbe 3cd2 9dbd
00000360: 04a0 2cbe 0bca e5bd 58bd 3b3e a998 8bbe
00000370: 446b 573e ee33 133e 52bf cfbd 65eb fcbd
00000380: e713 ae3c ab1d fd3d 5f22 6e3e 4bc2 c63b
00000390: d5a4 c33e bfda 29bc fde5 d9bd 4fd1 5d3d
000003a0: 196b 343d 73a5 833e 03f3 173e 2648 30be
000003b0: a29c 1cbd b9dc 11bd 2cde bdbd 14e3 b73c
000003c0: ff86 423e 10f4 93be f5ba 133e 9503 fe3b
000003d0: d14f c1be 67fc afbe d6a7 6bbe 186c b43d
000003e0: b90b 2ebe 77cc 0bbe a35e db3d 30f5 8b3e
000003f0: 77e5 083e dec0 6f3e 2c15 1ebe 587d e0bd

arith.constant2 f4 [27]
0.025195071 0.048377935 -0.1187338 -0.02008101 0.058994018 -0.032752067 0.038406327 0.077517
-0.018975437 -0.060504407 -0.025559008 0.02510542 -0.2211418 0.05136839 0.06629214 -0.20489271
0.057930917 0.046524297 -0.020083586 -0.012674972 -0.20665742 -0.20629996 0.00062187505 0.04746376
-0.18418871 -0.058106843 -0.20688376
00000000: e565 ce3c f127 463d b52a f3bd ee80 a4bc
00000010: b6a3 713d 0827 06bd f44f 1d3d 3cc1 9e3d
00000020: 6072 9bbc 78d3 77bd 2061 d1bc e2a9 cd3c
00000030: ff72 62be a967 523d 2cc4 873d 65cf 51be
00000040: f848 6d3d 4390 3e3d 5586 a4bc b0aa 4fbc
00000050: 019e 53be 4c40 53be 5405 233a 5c69 423d
00000060: f79b 3cbe 7101 6ebd 56d9 53be

sequential_1/dense_1_2/BiasAdd/ReadVariableOp f4 [32]
0.048961785 0.09045479 0.06319795 0.051526073 0.071482 0.018596323 0.074330136 0.063937716
0.09935339 0.076381244 0.087152675 0.028508076 0.049769714 0.10800468 0.025250094 0.017393121
0.025216505 0.080075 0.026269225 0.076632075 0.091980055 0.078964636 0.15751271 0.12149005
-0.033179373 0.0946521 0.10571736 0.06328023 0.10473544 0.070690565 -0.00450205 0.112011306
00000000: 278c 483d 5c40 b93d ed6d 813d 010d 533d
00000010: 2865 923d 5157 983c 663a 983d c7f1 823d
00000020: ca79 cb3d c56d 9c3d 1a7d b23d c589 e93c
00000030: 54db 4b3d 8f31 dd3d 49d9 ce3c 057c 8e3c
00000040: d892 ce3c 5dfe a33d 8f32 d73c 47f1 9c3d
00000050: 0a60 bc3d 36b8 a13d 034b 213e c6cf f83d
00000060: 18e7 07bd f6d8 c13d 5882 d83d 1199 813d
00000070: 897f d63d 37c6 903d ef85 93bb 2f66 e53d

sequential_1/dense_1/BiasAdd/ReadVariableOp f4 [64]
0.08714861 0.09479792 0.15117615 0.14517824 0.07103677 0.03291466 0.037900623 0.0335558
0.06668745 0.13005438 0.053600464 0.004324118 0.07362388 0.09849168 0.07097901 0.16858909
0.104085326 0.12732911 0.06366749 0.119441226 0.12111862 0.09379307 0.12131867 0.041336443
0.14318961 0.049160726 0.0703203 0.12398777 0.15110503 0.07018903 0.09182777 0.020724507
0.07096629 0.029289864 0.043164745 0.06622768 0.057466164 0.1340068 0.02688595 0.059493724
0.09636086 0.10386251 0.11891232 0.10284792 0.15901852 0.099690676 0.04620906 0.14983697
0.1792818 0.109049216 0.11058327 -0.02758601 0.087107524 0.078727044 0.040043995 0.06328583
0.074453495 -0.012587483 0.11969497 0.058237232 -0.014674485 0.049476806 -0.014868215 0.11850448
00000000: f87a b23d 6925 c23d eccd 1a3e 9ba9 143e
00000010: ba7b 913d 86d1 063d af3d 1b3d ce71 093d
00000020: 6e93 883d fa2c 053e 298c 5b3d 55b1 8d3b
00000030: 1ec8 963d 02b6 c93d 715d 913d 9ea2 2c3e
00000040: b02a d53d 9062 023e 1a64 823d 9a9d f43d
00000050: 0a0d f83d 9516 c03d ec75 f83d 6750 293d
00000060: 4ca0 123e c25c 493d 1704 903d 4ded fd3d
00000070: 47bb 1a3e 44bf 8f3d 3310 bc3d 71c6 a93c
00000080: c656 913d 4cf1 ef3c 84cd 303d 61a2 873d
00000090: a461 6b3d 1439 093e ec3f dc3c b1af 733d
000000a0: d858 c53d deb5 d43d 4d88 f33d eea1 d23d
000000b0: c0d5 223e a02a cc3d b645 3d3d dd6e 193e
000000c0: a695 373e 3255 df3d 7b79 e23d 0efc e1bc
000000d0: 6e65 b23d a53b a13d 2c05 243d 009c 813d
000000e0: 137b 983d bb3b 4ebc a322 f53d 2a8a 6e3d
000000f0: 406d 70bc 31a8 4a3d d099 73bc 7ab2 f23d

sequential_1/dense_1/MatMul f4 [64, 20]
0.3061728 0.031634334 -0.1752903 -0.023010094 -0.018649306 -0.23666121 0.21000656 0.123061225
-0.08137576 0.38177675 -0.23233171 0.12480349 0.09467537 0.28025675 0.33506593 0.024211952
-0.28506055 0.21898732 -0.17614591 -0.20575945 0.09307641 -0.23032059 0.04593057 -0.043779258
0.026024142 -0.0002680719 -0.08910271 -0.0021169782 0.3760692 -0.27514544 0.18161473 -0.052187372
0.044048302 0.3668246 -0.22871105 0.20560364 -0.11029052 0.51076597 0.11950216 -0.3764235
-0.3456901 0.28775093 0.077766486 0.2979974 -0.13923524 0.3538461 0.22666495 -0.21425591
0.24006721 0.31821844 0.0010457922 0.16128288 -0.14786799 0.0024421376 -0.12347131 0.122323126
-0.13390815 0.09964731 0.2198455 0.0908822 0.20874274 0.30218482 -0.13023753 -0.20631021
0.00759676 -0.023830727 -0.08085325 -0.12936501 0.05097174 0.09309541 0.27284014 0.28273913
-0.13863176 0.41013214 0.3082769 -0.075294144 0.193055 -0.056448102 -0.2535118 -0.44937512
-0.38535574 0.1616935 0.2162272 0.031915493 -0.054054204 0.19843414 -0.13948008 0.10931352
0.20628577 -0.025728118 -0.105088994 -0.06855201 0.021879924 -0.115749374 0.021401852 0.41387713
-0.1467948 -0.09679363 0.18766782 0.4196177 0.23628874 0.20199594 -0.043477092 -0.22560573
-0.2739076 -0.094174005 0.17620924 0.16615419 0.2787618 0.10195699 0.033356573 0.18157737
0.07568018 0.250212 0.30229136 0.12539428 -0.2161412 0.054373033 0.08029604 0.019700209
-0.16469696 0.3143359 -0.26230574 -0.17548347 0.3378668 0.070009984 0.16681162 -0.09498982
-0.31117725 -0.36407384 0.21799967 0.15491553 -0.09181563 0.30280048 -0.0003158258 0.25914678
-0.00046186137 0.26919663 -0.0803072 0.14146826 0.15916738 0.28796813 -0.2418918 0.06812248
0.13850468 0.16902651 -0.20947234 -0.1795655 -0.24423753 -0.18951814 -0.18783411 0.32079995
0.07995426 -0.045795918 0.30014226 0.09235378 -0.30958867 0.078764275 -0.051584244 0.12012172
0.26008043 0.01727143 -0.20298378 -0.03501965 -0.21364191 -0.016656667 0.38493916 0.1318489
-0.24291489 -0.1730461 -0.19193377 0.29101506 -0.33220246 -0.27340552 0.011477518 0.039754998
0.018989919 0.15886232 0.22801268 0.09508092 -0.0658442 0.21841183 -0.15713987 0.16076058
0.28225198 0.20054226 -0.11101638 0.18751693 0.4580411 0.052334655 0.086344324 -0.041561425
-0.08775928 0.33321142 -0.21796665 -0.23309718 0.13513413 -0.3042067 -0.10366754 -0.3060725
-0.110724315 0.3035949 0.26640424 -0.16480501 0.4199288 -0.19753616 0.028433105 0.14974332
-0.06333475 0.14182888 0.29372868 -0.13207419 -0.16180407 -0.04642809 0.040941007 0.28295574
0.11430446 -0.24240266 -0.079377145 0.25221348 -0.32793468 0.33308676 -0.028297212 -0.2127368
-0.1561181 0.14824383 0.32528174 0.21107864 -0.07100957 0.116190135 0.24383925 -0.20890364
-0.008820525 0.115519874 -0.19872242 -0.27276883 0.2427749 0.3069038 0.015867174 -0.32354054
0.18850227 -0.042906027 0.15485269 -0.0851141 0.029021943 -0.038844723 0.27106953 -0.18022402
-0.24892962 -0.07091355 0.36239362 -0.41688535 0.19275701 -0.15828662 0.13411132 -0.0072657354
00000000: aec2 9c3e 0193 013d 4d7f 33be aa7f bcbc
00000010: 6ec6 98bc 5157 72be f60b 573e 8607 fc3d
00000020: 56a8 a6bd 3e78 c33e 5de8 6dbe f998 ff3d
00000030: 29e5 c13d d07d 8f3e c38d ab3e 2558 c63c
00000040: 75f3 91be 363e 603e 985f 34be 9bb2 52be
00000050: d89e be3d 29d9 6bbe b221 3c3d e151 33bd
00000060: 9530 d53c 008c 8cb9 7b7b b6bd 00bd 0abb
00000070: 248c c03e dddf 8cbe 36f9 393e 6dc2 55bd
00000080: fe6b 343d 6fd0 bb3e 3b33 6abe c389 523e
00000090: ffdf e1bd 8fc1 023f 8cbd f43d 95ba c0be
000000a0: 4bfe b0be 1754 933e 0944 9f3d 1d93 983e
000000b0: af93 0ebe 512b b53e db1a 683e e765 5bbe
000000c0: 2ed4 753e 87ed a23e f712 893a 5727 253e
000000d0: b56a 17be 450c 203b 87de fcbd 8c84 fa3d
000000e0: 381f 09be e413 cc3d 2e1f 613e 7220 ba3d
000000f0: a8c0 553e f8b7 9a3e fd5c 05be fc42 53be
00000100: 3eee f83b a838 c3bc 6496 a5bd 4378 04be
00000110: bec7 503d cea8 be3d b4b1 8b3e 2fc3 903e
00000120: 7cf5 0dbe d7fc d13e 78d6 9d3e d133 9abd
00000130: 36b0 453e 2036 67bd 4ccc 81be 7f14 e6be
00000140: 594d c5be fb92 253e aa6a 5d3e d2b9 023d
00000150: f167 5dbd 5232 4b3e ded3 0ebe c4df df3d
00000160: 943c 533e c6c3 d2bc e638 d7bd ff64 8cbd
00000170: 873d b33c 020e edbd f052 af3c b4e7 d33e
00000180: 6051 16be bd3b c6bd fe2b 403e 22d8 d63e
00000190: adf5 713e 06d8 4e3e 0915 32bd 3005 67be
000001a0: 9e3d 8cbe 4dde c0bd 3270 343e 5324 2a3e
000001b0: deb9 8e3e d4ce d03d e7a0 083d 6bef 393e
000001c0: 36fe 9a3d ca1b 803e efc5 9a3e 5c67 003e
000001d0: 1e54 5dbe 42b6 5e3d 4072 a43d 5562 a13c
000001e0: 52a6 28be a3f0 a03e f04c 86be f0b1 33be
000001f0: e1fc ac3e 6561 8f3d aad0 2a3e 068a c2bd
00000200: a052 9fbe e367 babe 4e3b 5f3e 2da2 1e3e
00000210: d509 bcbd aa08 9b3e 6c95 a5b9 e3ae 843e
00000220: fc25 f2b9 24d4 893e 1a78 a4bd 0edd 103e
00000230: c6fc 223e 8f70 933e 7cb2 77be cc83 8b3d
00000240: 2cd4 0d3e 4915 2d3e eb7f 56be 05e0 37be
00000250: 6719 7abe 0b11 42be 9657 40be e43f a43e
00000260: 0fbf a33d 8094 3bbd 3fac 993e fb23 bd3d
00000270: 6882 9ebe 2a4f a13d 004a 53bd 6002 f63d
00000280: 4329 853e d07c 8d3c fbda 4fbe c470 0fbd
00000290: f2c4 5abe 9073 88bc bf16 c53e 6603 073e
000002a0: aebe 78be ff32 31be 498a 44be edff 943e
000002b0: 7116 aabe cffb 8bbe 330c 3c3c 23d6 223d
000002c0: bf90 9b3c ceac 223e 287c 693e c9b9 c23d
000002d0: 53d9 86bd 5aa7 5f3e 46e9 20be 6c9e 243e
000002e0: 5583 903e f35a 4d3e 8e5c e3bd 7004 403e
000002f0: 5d84 ea3e dd5c 563d 4bd5 b03d 503c 2abd
00000300: 23bb b3bd b09a aa3e a632 5fbe 07b1 6ebe
00000310: 9a60 0a3e fbc0 9bbe a64f d4bd 89b5 9cbe
00000320: 6ec3 e2bd ca70 9b3e 2366 883e a5c2 28be
00000330: e800 d73e eb46 4abe 8bec e83c 5056 193e
00000340: a6b5 81bd 973b 113e 9b63 963e 753e 07be
00000350: f7af 25be 622b 3ebd c2b1 273d 93df 903e
00000360: 7518 ea3d 6738 78be 7c90 a2bd 2022 813e
00000370: 0ee7 a7be 598a aa3e 8ecf e7bc add7 59be
00000380: 6cdd 1fbe 3bcd 173e 548b a63e 0025 583e
00000390: 776d 91bd 18f5 ed3d ffb0 793e d6ea 55be
000003a0: f783 10bc af95 ec3d e47d 4bbe 5ba8 8bbe
000003b0: fc99 783e 7f22 9d3e e0fb 813c 1ba7 a5be
000003c0: bd06 413e 3bbe 2fbd b491 1e3e 4d50 aebd
000003d0: 6dbf ed3c a51b 1fbd a0c9 8a3e a58c 38be
000003e0: 68e7 7ebe 203b 91bd a88b b93e ff71 d5be
000003f0: 1862 453e e315 22be 7a54 093e 6815 eebb
